_savetorch13_state_dict.pt (torch, 20815 bytes, 7 tensors)

linear1.weight f4 [64, 30]
00000000: 3e05 fa3d cc16 cb3d 9c13 1fbd 9ad6 353e
00000010: 82d4 f13d 407f 373b 5f38 d8bd 4e54 693d
00000020: 3d44 48be c4ae 7c3c 1664 88bd c861 3abe
00000030: c966 c0bd e16c ecbd dd7c 97bd 6b82 993d
00000040: 696b 08be 93b6 41be bf65 253e 0842 0e3e
00000050: 0af5 113e c81b 7dbd 91f9 8ebd 31d1 6cbd
00000060: 9e93 d7bd 42c4 533e d6b6 38be d96b b2be
00000070: ca3d 8ebd 74df f4bd 6667 4bbe d25b 29bf
00000080: c04d 61bd 9e5f 05be cf29 bfbd 066c 7c3e
00000090: e687 56be 21d1 d23d 9af7 11be 04a0 1bbc
000000a0: 8efa 7fbe 2b57 e23a 9c74 30be 12ba 84be
000000b0: a3c1 a73b 4358 2e3e 3bdd 143d e1e8 2ebe
000000c0: 2a07 a13d a479 95bd ebd8 49bd 3f7c 66be
000000d0: 4740 a2bd 7c08 c6bd bc85 403c 86d5 acbc
000000e0: 45fa 24be cf53 99be eabd dc3d cdbc 033e
000000f0: 20f9 acbd fdae 08be 8dd3 63be fac0 85bd
00000100: a13d 0f3e 2140 e43c 2028 31be c344 0f3d
00000110: 756d 0f3d 7630 be3d 5399 6ebd ecc6 7f3d
00000120: 0635 643d 293b 2abe f85d 2f3e 889c 1b3c
00000130: 041b f0bd 5c1d 18be 585c 913c 101b 27be
00000140: ce1d 84be c6b1 3c3e b43a aebe 374c 88be
00000150: 54e8 043e 8840 f4bd fc51 8ebe 8b79 3e3d
00000160: 3e0b debc 1794 cdbc 3e04 25bd 7e26 3f3e
00000170: 8934 ee3c 1c77 353e 308a 283d 17e4 98be
00000180: 71cf e7bb 6293 1b3e 7325 993d 3aa3 513d
00000190: ffe6 0b3d 6da5 c9be 8c6b 053c 9963 f5bd
000001a0: 4891 83bd 0680 babe 2f96 02be 6b53 87bc
000001b0: 88bb cdbd 54bb 09bd 53bc 6c3e ec17 633e
000001c0: 0a76 443e 891a 9c3e 7a5f ce3e 4678 193e
000001d0: 6e78 803e ac40 233d 2242 a23e f7b8 a9bb
000001e0: 6062 f83d 125e 163e aba7 a23e 58d9 893e
000001f0: 9ca4 633e 4707 d73d 788e 373d 2f93 8a3e
00000200: 2d6c ef3d 7ca0 af3d 49c7 843d c9f9 8fbd
00000210: e02f 273e 6379 13bb ad30 d23d ac6f c3bd
00000220: 0567 cf3d 5cec 2b3b 7d22 8fbd aeb3 c23c
00000230: 9d83 ac3e b338 3c3e 92cd 953e c947 1d3e
00000240: 7e50 513e 8b26 103e 74e7 ae3e be6f 653e
00000250: e001 e8bc 76cf a1bd d51d 9d3c 8f8a a23e
00000260: 2311 103d 0eaf a33e b88a 12be 8adc 183b
00000270: 2826 2b3e ce9e fbbd 15f8 15be 3e70 9c3b
00000280: dcfc 0fbd 3061 e13d f3fd b03d da14 4abe
00000290: 9a16 9bbd a37e 9f3e d494 4bbd 9261 1cbe
000002a0: 804b e6bd 5e68 943e f027 98bd acc9 f2bd
000002b0: ff09 33bd 2377 163d 892a f8bd e95c 013e
000002c0: 58e0 42be d7de a9be 07fa a3bd 9940 a63d
000002d0: af49 893d 31fb 54be 8b36 3a3d 2af1 343d
000002e0: df31 023e 52c6 35bd 1ecb 013e 1d2a 4dba
000002f0: 2a5f 2abe 95af 7e3c 7523 d3bd 2d17 313c
00000300: b9d6 8b3c f49a 5fbe 740a 3f3d 255b b83d
00000310: ae77 87bd c9b9 e23d 975b 4e3e a9e5 ddbd
00000320: 9ed6 b53c 2fd8 a4bd c49b 65bc 3763 cfbd
00000330: d3b0 3f3e c9ed 2f3e b99f 2a3d 2e74 db3c
00000340: bbad eb3d 2f2b 773e 8c2b 06be f6c1 88be
00000350: dd2e fabd 9a83 293d 9297 04bd 2931 603e
00000360: 0c7a 48be 4006 9cbd acff 983c 22c1 503d
00000370: 1c01 b0be cae6 1cbd 38fd 99be aced 9fbd
00000380: f0b3 133e 1324 7a3e 8f97 48be cfed 253c
00000390: b642 753e f847 dfbd 14aa 6cbe 8a3b c7be
000003a0: 6df9 193d 6ea8 7bbe 08a2 acbd e230 f13d
000003b0: ad86 3cbd 407a e23c f5ee 26be 7587 01be
000003c0: 92dc 863c 3e07 713e 6bc1 9c3e 0d0e 873c
000003d0: 43ff 4f3e bbcd 81bc e81f 1e3e d107 753e
000003e0: 6c82 a83d 3260 fbbd a359 eb3d ad05 c0bd
000003f0: bb41 773d 2c02 493d 5665 d13c a851 d03c
0.12208031 0.099164575 -0.03883706 0.17757645 0.11808111 0.002799943 -0.10557627 0.056965165
-0.19557281 0.015422527 -0.06659715 -0.18201363 -0.09394605 -0.115442045 -0.07396863 0.074955784
-0.13322224 -0.18917303 0.16152094 0.13892376 0.14253631 -0.061794072 -0.06981195 -0.057816688
-0.105262026 0.20680335 -0.18038496 -0.34847906 -0.06945379 -0.11956683 -0.19863662 -0.6615573
-0.05500579 -0.13024756 -0.09334146 0.24650583 -0.20950279 0.102937944 -0.14254609 -0.0094986
-0.24997923 0.001726841 -0.17231983 -0.2592321 0.005119519 0.17025857 0.036343794 -0.17081024
0.078626946 -0.07298592 -0.049279135 -0.22508334 -0.07922416 -0.09669587 0.011750635 -0.02109791
-0.16111095 -0.29946753 0.10778411 0.1286499 -0.08445954 -0.13348003 -0.22248669 -0.06530948
0.13988353 0.02786261 -0.17300463 0.034977686 0.035016496 0.09286587 -0.05825169 0.062445566
0.05571463 -0.1662413 0.1712569 0.009497769 -0.11723903 -0.1485495 0.017744228 -0.16318917
-0.2580399 0.1842719 -0.34029162 -0.26620647 0.12979251 -0.11926371 -0.27796924 0.04650263
-0.02710497 -0.025095029 -0.04028725 0.18667027 0.029077785 0.17721218 0.04114741 -0.2986152
-0.0070742895 0.15192941 0.07477846 0.051181056 0.034155842 -0.39384022 0.008143317 -0.11981887
-0.064241946 -0.364258 -0.12752603 -0.016519269 -0.10045534 -0.033625916 0.23118715 0.22177094
0.19185653 0.30488995 0.40307218 0.14987287 0.2509188 0.039856598 0.3169108 -0.00517952
0.121281385 0.14684322 0.31768546 0.26923633 0.22230762 0.10499435 0.044813603 0.27065417
0.11690555 0.08575532 0.06483323 -0.070300646 0.16326857 -0.0022502772 0.102631904 -0.09542784
0.10127071 0.002623341 -0.06989 0.023767319 0.33694163 0.18381004 0.292584 0.15359415
0.20440862 0.14077203 0.3416096 0.22405908 -0.028321207 -0.07900898 0.019179264 0.31746337
0.035172593 0.31969494 -0.1431073 0.002332481 0.16713774 -0.12286149 -0.14645417 0.0047741225
-0.035153255 0.11004865 0.08642187 -0.19734517 -0.0757267 0.31151304 -0.04970248 -0.15271595
-0.11244869 0.28985876 -0.074294925 -0.11854872 -0.043710705 0.03673471 -0.12117488 0.12633099
-0.19030893 -0.33177826 -0.08006673 0.0811779 0.06703507 -0.20798947 0.045462172 0.044175304
0.12714337 -0.044378586 0.1267514 -0.0007826405 -0.16637865 0.015544792 -0.10309497 0.010808748
0.017070161 -0.21836454 0.04664083 0.090017594 -0.06614624 0.11070592 0.20152126 -0.1083482
0.022197064 -0.08049046 -0.014014188 -0.101263456 0.18719797 0.17180552 0.04165623 0.026788797
0.11507746 0.24137567 -0.1310255 -0.2671048 -0.1221597 0.04138527 -0.03237111 0.21893753
-0.19577807 -0.076183796 0.018676601 0.050965436 -0.34375846 -0.038306035 -0.30076003 -0.07809004
0.1442411 0.24427824 -0.19589065 0.010127499 0.2395123 -0.10902399 -0.23111755 -0.38912612
0.037591387 -0.2457597 -0.084293425 0.11776902 -0.046026874 0.027646184 -0.16302092 -0.12649329
0.016462598 0.23537919 0.30616316 0.016486192 0.20312218 -0.01584517 0.15441859 0.23928763
0.08228001 -0.12274207 0.11491706 -0.093760826 0.06036542 0.049074337 0.025561016 0.025429562

linear1.bias f4 [64]
00000000: 2ccc 7bbd e0ce 5b3b ea20 90bd 64e2 6d3e
00000010: 0dc8 1dbd 7306 4abb 17fe a43c 1564 393c
00000020: ca99 2d3e 97d6 1cbe b4af b13d 5bfa b9bc
00000030: 1d09 f43d 215c 563d d323 593e 5633 74bd
00000040: 9946 55bc ea60 32be d560 d3bd d0af 42be
00000050: a5ae 3d3d 0d66 14be 3327 503d d9ed 99bd
00000060: c771 6e3e 8c13 76be 33d8 2abd a52f 03be
00000070: e824 293d bba3 9f3c 8f35 0ebe e80e e63b
00000080: a242 873d db7e 8abc a785 10be 4b0f c3bd
00000090: c9e1 77bd be92 c43d 60bc 2d3e 2e6c 4a3e
000000a0: 84cd 473d 43af 1bbe a691 51bd be76 cbbd
000000b0: 5cdf 9e3d 159b 943e 9c73 2c3e da14 90be
000000c0: e18b 8d3d d6c5 2c3e 0788 453e d2d0 223d
000000d0: 9238 d6bc 1ce7 84bd 6252 403e 1d94 053e
000000e0: 727f 3ebc 2035 203e 742f 35be 6816 8ebd
000000f0: 1572 94bd 951b 953d a352 7b3e 4277 c63b
-0.06147401 0.0033540055 -0.07037528 0.23230892 -0.03852086 -0.0030826598 0.02014069 0.011315365
0.16953197 -0.15316235 0.08676091 -0.022702387 0.11915801 0.052333955 0.21205072 -0.05961927
-0.01301732 -0.17419782 -0.103212036 -0.1901238 0.046309132 -0.14492054 0.050818633 -0.07516069
0.2328559 -0.24030894 -0.04171009 -0.12811144 0.041294962 0.019487252 -0.13887618 0.00702082
0.06604506 -0.016906193 -0.14113484 -0.09524401 -0.06051806 0.09598301 0.1696639 0.1976783
0.04877998 -0.15203576 -0.05116429 -0.09934758 0.07757446 0.29024568 0.16840976 -0.28140908
0.069114454 0.16872343 0.19290172 0.039749928 -0.026150022 -0.06489393 0.18781427 0.13044782
-0.011627065 0.15645266 -0.17693883 -0.069378674 -0.07248322 0.072806515 0.24543242 0.006056697

linear2.weight f4 [32, 64]
00000000: 10cc 0a3d 82da 2f3e 27e7 6a3e 349c 4abe
00000010: b27c 903d f832 fa3d f945 763d 3908 483d
00000020: 41d7 0fbd 4cd9 113c 22f3 b63b 0d55 923c
00000030: 533b 03be 005c 51bd 1c23 633e b0cc 293e
00000040: ae7f dabc 614a 90bd a039 7bbc afdd 44be
00000050: 17df 433c 204e 16bd 72f7 fb3e 35e5 0a3d
00000060: 0819 d43d a532 bfbc a63d 3b3e 5384 3e3e
00000070: 1fc1 1fbd 6eab c03e 0b6e f13c 0434 2dbe
00000080: 6c7b bfbd cd11 31bb ed12 533e afde 3ebe
00000090: c967 03bd fe45 f9bd 5a8a 6fbd f1a0 cc3d
000000a0: 2afa 153e b148 f63d 632d b0bb a0f4 0abe
000000b0: 4ab2 783d 8fe9 1ebe 5e00 713d eeca 66be
000000c0: a080 89bd b367 60be 8587 95bc a3da 573e
000000d0: bb8b cd3d de57 263b d19a 62bd 4248 073e
000000e0: f704 593e 3e80 1c3e f117 1abd ad0b e8bc
000000f0: 2063 87bc 9e82 2dbd c219 4d3e a67a 10bd
00000100: d5ee 2d3c 92d2 17be 3884 55b9 d5fc 493d
00000110: f692 7c3e 5174 6e3c ed18 c23c 28d2 77bc
00000120: 273e 463d 7215 903d 8de9 6a3e 0944 e9bd
00000130: e35b 013e 6548 46bd a025 2dbe 7006 3e3c
00000140: 9191 1fbd bbe2 01be 1938 063e a906 d03d
00000150: 9529 823e 691d 1fbd 756a 4dbe e5bd 0d3e
00000160: 1a1c 1dbe a1a0 8dbd 2b26 ff3d cf7c bb3d
00000170: 6cd7 d83d 6851 053b ce7b 19ba d9b5 ab3d
00000180: d289 063e 1021 213e d320 d2bd 2e05 a63e
00000190: 2c4a 0d3b 9349 3c3e 90aa 313e 5580 673c
000001a0: e839 16be f5f8 99bd ecb6 05be 59a3 0c3e
000001b0: 99b2 5d3e 944c 4a3e 0804 43bd bdf6 3b3d
000001c0: 4077 293e eb4a 8c3e c7eb 273e eeef 76bd
000001d0: 26c6 183d 6ab9 a53d 343b 573e 39f1 84bd
000001e0: 06c6 9ab9 e220 d1bd 1f0f 0abc ca3c fbbd
000001f0: ab2e e13d 6783 693e 9d46 48be 854e 283e
00000200: 1b2e cdbc bde7 243c 1fe4 3b3e 4491 043e
00000210: f0b7 553e 1e26 8dbe e409 0e3e 614f 8cbc
00000220: eed7 3d3e 9cff 1cbd 4b7a 983e f82e 09be
00000230: 3310 483e 1c02 263e e6b5 d6bd a597 4f3d
00000240: 05ec 9a3c 4dc2 06be 6347 5d3e 99f2 413e
00000250: 0dd4 313e c06c a0bd 5161 9dbe 2740 123e
00000260: a8f7 e93b a08c 10bd 3785 74bd ad29 57bd
00000270: b40b a73e b006 96be e9cb 463e 73e8 9e3d
00000280: 6640 76bd db98 2b3e 77dd 25be f382 e23e
00000290: b93f 52be 3233 243e f3bb 283e fe6a 83bd
000002a0: 1e11 6fbd edd5 a73d 6bbb 88be 75cf 0e3e
000002b0: c4b3 423e 79c9 783e 9383 30bd ed95 c33d
000002c0: 25f7 9b3d 18dd 2e3e e051 7a3e e3bd db3d
000002d0: 1ae6 0d3e e0d7 89bd 1d30 673e 28e4 1abe
000002e0: e9d2 33bd 4f5e 2bbe 9a0b 373e 30aa 00be
000002f0: 7470 9e3d c986 443e 1c55 c4bd a2c4 3b3e
00000300: 4e09 c53c 0087 633e 8dea 993e 0dd2 fabd
00000310: 5c82 2abd 7c64 793d 08ed ea3c 2e74 3f3e
00000320: 7000 51bd 8473 463e b0e4 42be a64a df3d
00000330: 6993 e93c aa60 85bd 0165 ce3d 4baf e23d
00000340: ac9c e33c c1a3 163e 5b3f 0f3d 609e 363d
00000350: 6a7c d2bd a7ee 69bd 4dd3 a33e c3c1 babc
00000360: 927e 273e 33d5 a6bd e46c 6d3e 0a9a 50bd
00000370: d053 69be 0294 6d3e 062e 773c cea7 dabd
00000380: 7e6b 9ebc 39cb d6bc bc7b 443e 173a a7be
00000390: 16b1 3c3e 00f1 07be a4ed 7a3d a33c db3d
000003a0: 0064 903d 1365 7f3e 1f6f d6bc 641d ccbc
000003b0: e7e3 a7bd 8e12 a6be 49b4 8f3e 49ab a3bc
000003c0: 2059 0c3e e3b8 2cbe 9834 783d 2712 ab3d
000003d0: b7ba 123e 4e1c 0bbd a9af a2bc 7bad 933e
000003e0: 4fdd ea3c 6dc2 0abd b29b dabd dd1f f63c
000003f0: b1a8 c7bb 153d 1abe 2a2c 243e d231 75bd
0.033886015 0.17173198 0.2293974 -0.1978615 0.07055034 0.12216753 0.060125325 0.048835967
-0.03511739 0.008901905 0.005583183 0.017862821 -0.12815599 -0.05111313 0.22181362 0.16581988
-0.02667221 -0.07045437 -0.015333563 -0.1922519 0.011955044 -0.0366956 0.49212223 0.033909995
0.10356337 -0.023339579 0.18285236 0.18605165 -0.039002534 0.3763079 0.029471418 -0.16914374
-0.09349713 -0.0027018667 0.20612688 -0.18639635 -0.0320814 -0.12171553 -0.05848155 0.09991635
0.14646211 0.120255835 -0.0053765043 -0.1356988 0.060716905 -0.15518783 0.05883824 -0.22538349
-0.067139864 -0.21914558 -0.018253097 0.21079497 0.10036417 0.0025381963 -0.055323426 0.13211158
0.211933 0.15283296 -0.03762049 -0.02832588 -0.016526759 -0.042360894 0.20029357 -0.035273217
0.010616024 -0.1482642 -0.00020362518 0.049313385 0.24665436 0.014554099 0.023693526 -0.015125789
0.048399117 0.0703534 0.22940655 -0.1138993 0.12632708 -0.048408885 -0.16908884 0.0115982145
-0.038957182 -0.12684147 0.13107337 0.1015752 0.2542235 -0.038846407 -0.20060141 0.1384197
-0.15342751 -0.06915403 0.12458452 0.09154665 0.105879635 0.0020342711 -0.0005854935 0.08384294
0.13138512 0.15735269 -0.10260167 0.32425827 0.0021559102 0.18387441 0.1735022 0.014129718
-0.14670527 -0.07518188 -0.1305806 0.13734187 0.21650161 0.19755775 -0.047611266 0.045889605
0.16549397 0.27400908 0.16398536 -0.06028741 0.037298344 0.080920056 0.21018678 -0.06491322
-0.00029520708 -0.1021135 -0.008426457 -0.12267454 0.10995229 0.22804032 -0.19558187 0.16436203
-0.025046399 0.010065016 0.1834874 0.1294604 0.20870948 -0.27568144 0.1387096 -0.017127695
0.18539402 -0.038329706 0.29780802 -0.13396823 0.1953743 0.16211742 -0.10483913 0.05068173
0.018911371 -0.13160057 0.21609263 0.189402 0.17366047 -0.078332424 -0.3073831 0.14282285
0.0071401186 -0.03529036 -0.059697356 -0.05252998 0.32626116 -0.29301977 0.19413723 0.0775918
-0.06012001 0.16757528 -0.16197763 0.4424053 -0.20532121 0.16035154 0.16477947 -0.064168915
-0.058365934 0.081951 -0.2670549 0.13946326 0.19013888 0.24295606 -0.04309423 0.095500804
0.076154985 0.17076528 0.24445295 0.107295774 0.13857308 -0.06730628 0.22576948 -0.15126097
-0.04390231 -0.16735195 0.1787552 -0.12564921 0.077362925 0.19192041 -0.09586546 0.18336728
0.024052288 0.22219467 0.3006176 -0.12247095 -0.041628227 0.060886845 0.028677478 0.18696663
-0.051025808 0.19380003 -0.1903255 0.1090291 0.028512673 -0.06512578 0.10077859 0.11068591
0.027784668 0.14710905 0.03497253 0.044584632 -0.10277636 -0.057112362 0.31997147 -0.02279747
0.16356876 -0.08146133 0.2318607 -0.050928153 -0.22785878 0.23200992 0.015086656 -0.106765375
-0.019338366 -0.026219951 0.19187826 -0.32661507 0.18426928 -0.13275528 0.061261788 0.10704925
0.070503235 0.249409 -0.026176034 -0.024916358 -0.08197766 -0.3243603 0.28067234 -0.019979136
0.13705873 -0.16867404 0.060597032 0.08353072 0.14329039 -0.03396254 -0.019859152 0.28843293
0.028669981 -0.033876825 -0.10674228 0.03004449 -0.0060931076 -0.15062363 0.16032472 -0.059861965

linear2.bias f4 [32]
00000000: a48b 733a 4756 393d bea4 6b3b a6c9 e43c
00000010: 81ea 753d 984f 4f3d d2bd 45bd cf0e 1cbd
00000020: 8558 0e3e 5420 f33d aefc 613e f2c8 b23c
00000030: 21b3 f33d 7b91 713d b32a bd3c b630 3a3e
00000040: 490c 27be 92c2 bb3d bc0b 0abd 2507 0b3e
00000050: f902 ba3d abd8 3f3e 6c2c c43d 6fc3 883b
00000060: a3af bf3c 04c4 acbd ef43 68bd d6ab 523c
00000070: f042 bb3d b756 303e 3e70 70be 836e 353e
0.00092905224 0.045248296 0.0035956348 0.027928185 0.060038093 0.050613016 -0.04827673 -0.03810006
0.13900955 0.118714005 0.22069046 0.021824334 0.118994005 0.05897663 0.02309165 0.18182644
-0.1631328 0.09167971 -0.033702597 0.13576944 0.09082598 0.18734996 0.09578785 0.004173688
0.02339918 -0.084358245 -0.05670541 0.012858352 0.09143627 0.17220579 -0.23480317 0.17717938

linear3.weight f4 [16, 32]
00000000: 0d44 573e 889a 6abe 37f1 63be 451a 743e
00000010: 2ef5 1dbe 603b 80be da19 cbbd 8cd8 f3bd
00000020: 0edc 1c3c 6016 e53c ed5b 16be 9552 57bd
00000030: 1da8 cebd bf64 ce3d 36e4 b1bc 7373 5f3b
00000040: 1af1 033d 822c 8ebe 214a 043e 9750 473e
00000050: 0784 873e 1880 a4be cf04 bfbd e883 1c3d
00000060: 9f34 1c3d e867 64bd a769 533c c7b8 40be
00000070: 39ce 8cbe d37f 423d f43e aa3d a58c 983d
00000080: f4ab fcbd 185f 503d e457 853e af81 dbbc
00000090: 2487 603e 0acd b83d 6192 83bd 77b8 3a3e
000000a0: 0346 afbc 18fb 91be 41d8 1e3e 52a8 413d
000000b0: e0cc 623e e590 96be a9c1 8c3e 7b8d 6cbe
000000c0: 735e 9ebc 8389 2a3e 44a4 a03c c273 2bbe
000000d0: 2ef0 11be b810 913d 96f2 e73d 10c6 26be
000000e0: c690 8fbd 335f 1d3d f665 113e be58 8b3e
000000f0: 5583 823e 2c0f 85be 017f 6d3d 261a 6cbe
00000100: dd0f 093d bfa7 62be df09 a0be 128b 833e
00000110: 3142 8bbb e973 1fbe b2db 5cbe 98d5 37bd
00000120: 3835 123d 3cc1 283e e810 b6be f8d6 cfbd
00000130: f349 dfbd 43e3 c63d d3f3 97be e0b8 723e
00000140: 6557 c63d 8793 85be 585a 5f3e c329 0c3e
00000150: 703c a93e 016c 96be 0ca2 afbe a949 903e
00000160: 8eaa 263e 897e 93be 34fd 0bbb 6690 a6bd
00000170: b1b1 86be 97fd 763d a62c 52be 6ceb ef3d
00000180: 25e9 76bd b34d 4ebe c253 75bc 5c8d 1eba
00000190: 2738 a23c c99a 81be c362 a2bc 0b3a fd3c
000001a0: d272 8b3e 027e 2ebd 8fd0 98be f12a 123e
000001b0: 0c23 a7be eec0 053e d0f4 a7be 3635 ab3c
000001c0: 1516 ed3d 5102 4dbe ace4 2cbd 8da2 513e
000001d0: 82ac 1d3a b763 51be 17dd a4be 065d 343e
000001e0: b1a6 4f3e 0b65 88be 23fb 4ebe 778e 34be
000001f0: 7fdf 74be 4c59 5f3e 579f 60be 238e 8f3e
00000200: 3887 b0bc 0f5c 873d 2b6b ca3b 720f 303e
00000210: 4294 81be aa34 d13c d43a 2ebe 205c 01bd
00000220: 1c0b 5e3e baba 223d 38d1 aabe d291 2c3e
00000230: fce3 853c bd75 1b3e cd89 adbe 39c1 a23c
00000240: cee3 cabb 0769 8bbe 6ea9 a1bd a036 9d3d
00000250: 8906 843e c0b4 5dbe 0b33 b4be 9482 833e
00000260: 3774 5f3e 200e 69be a0c6 e1bd 2a4b a8bd
00000270: 816b cabd a2aa 26bd 8b47 1e3d 76b7 0cbc
00000280: 167d 5d3e f47d 57be 2b67 3ebd 6dea 563e
00000290: f5e6 a1be 0ad6 cebd 7e76 823d ab08 62be
000002a0: 9f76 8b3e f552 eb3d e7bd 93be d3c9 633e
000002b0: 7173 1dbd 5781 393e 4563 6bbe 66a1 da3d
000002c0: fcd1 553e 50b0 b8be 4171 9fbd cce8 803e
000002d0: 8418 963e d575 4dbe b75e 42be 2039 423e
000002e0: 33fd 6b3e 8e69 42be 206d 1dbc ffaa 6bbe
000002f0: 7d32 bcbe ed7e 6e3e 45fc 66be 16fe 933e
00000300: 0534 853e 1d16 1dbe 7ff4 79be fe57 7c3e
00000310: ffd4 66bd 430f 2dbe fff7 94bd 4520 223b
00000320: e007 a2bd a03f 3f3e d43f 1abe 9149 883c
00000330: 17ac c4bd 55d1 0a3e 04fc 84be 790c 833e
00000340: 511d 123e e6c4 c0be 3bb1 5abd d90d 723e
00000350: 4c8d 3e3d 3d5b f2bd 93a4 93be 831f 503d
00000360: e604 ab3d 6ec3 a7be 4b89 2d3c 7855 85be
00000370: 1e25 bfbe 39c9 773e 9e8e 8dbe 360c 5b3e
00000380: 1b80 92bd 7ec0 8e3e 3ed1 293e db99 9abe
00000390: ace4 a73e daf6 863e 7c75 223e 375a 943d
000003a0: c70b 9cbe a430 90be 7b6c 893e d59b c73d
000003b0: edd7 1f3d d762 05be 9a6c 5c3e 0dc2 a3be
000003c0: 1e45 3cbc 22e1 df3d 2d07 bc3c ef84 82be
000003d0: 2413 d5bd 105b 8b3e 5fec bb3e 11d6 a4be
000003e0: 1ea9 94bd 8e6e 443e f579 8fbd 6f17 af3e
000003f0: e09c 633e 5d4a 4ebe 9871 cabd 9e57 d33c
0.21022053 -0.22910511 -0.22259985 0.23838146 -0.1542556 -0.250453 -0.0991704 -0.119065374
0.0095739495 0.02796477 -0.14683504 -0.05256899 -0.10090659 0.100778095 -0.021715265 0.0034095913
0.032212354 -0.27768332 0.12918903 0.19464336 0.26467916 -0.32128978 -0.09327089 0.038211733
0.03813612 -0.055763155 0.012903607 -0.18820487 -0.27501085 0.047485184 0.083127886 0.07448701
-0.12337485 0.05087194 0.26043618 -0.026795236 0.21926552 0.09023483 -0.06424404 0.1823443
-0.021395689 -0.28511882 0.15512182 0.047279663 0.22148466 -0.2940742 0.274915 -0.23100846
-0.019332146 0.16654019 0.019609578 -0.16743377 -0.14251778 0.07083267 0.113255665 -0.16286492
-0.07010035 0.038420867 0.14199051 0.27216142 0.25490823 -0.25988138 0.05798245 -0.2305685
0.033462394 -0.22134303 -0.3125753 0.2569204 -0.004249834 -0.1557156 -0.21568182 -0.044881433
0.035695285 0.16479963 -0.35559773 -0.10148424 -0.109027766 0.097113155 -0.2967821 0.23703337
0.09684638 -0.26089117 0.21811807 0.13687806 0.33053923 -0.29379275 -0.3430332 0.28181198
0.16275999 -0.28807476 -0.0021360638 -0.081330106 -0.26307443 0.060300436 -0.20524845 0.11714825
-0.060280938 -0.20146827 -0.014973583 -0.0006048286 0.019802166 -0.25313404 -0.019822484 0.030911466
0.27236038 -0.04260064 -0.29846618 0.14274193 -0.32643926 0.13061878 -0.32803965 0.020899396
0.115764774 -0.20020415 -0.042210266 0.20472164 0.00060147804 -0.20448194 -0.32199928 0.1761361
0.20278431 -0.2663959 -0.20212989 -0.17632471 -0.23913382 0.21811408 -0.21935783 0.2803813
-0.021548852 0.06609356 0.006177326 0.17193392 -0.25308424 0.025537807 -0.17014629 -0.031581998
0.21683925 0.039728858 -0.33362746 0.16852501 0.016344063 0.15181632 -0.33894196 0.019867526
-0.006191707 -0.27228567 -0.07893644 0.076764345 0.25786236 -0.21650982 -0.35195193 0.2568556
0.21821676 -0.22759295 -0.11024213 -0.082174614 -0.09883786 -0.040690072 0.038642447 -0.008588662
0.21629748 -0.21044141 -0.046485107 0.20987864 -0.3162152 -0.100994185 0.06370257 -0.22073619
0.27238938 0.11490432 -0.28855821 0.22244959 -0.03844017 0.18115745 -0.22987087 0.106753156
0.20880884 -0.36072016 -0.07785273 0.2517761 0.2931558 -0.2006448 -0.18981443 0.18967104
0.23045807 -0.18985578 -0.009608537 -0.23014449 -0.3675727 0.23290606 -0.2255717 0.2890479
0.2601625 -0.15340467 -0.24409674 0.24642941 -0.056355473 -0.16900353 -0.07273864 0.0024738472
-0.07911658 0.18676615 -0.15063411 0.016636642 -0.09603136 0.13556416 -0.25973523 0.25595453
0.14268996 -0.37650222 -0.053391676 0.23638095 0.04652147 -0.118338086 -0.28836498 0.050811302
0.08350544 -0.3276629 0.010591815 -0.2604177 -0.37333006 0.24197854 -0.2764787 0.21391377
-0.071533404 0.27881235 0.16583726 -0.30195507 0.3279165 0.26360208 0.15865129 0.072437696
-0.30477735 -0.2816211 0.26840577 0.097465195 0.039024282 -0.13025986 0.21525803 -0.31983986
-0.011491088 0.109316126 0.02295264 -0.25492045 -0.104040414 0.27217913 0.36703774 -0.3219457
-0.07258819 0.19182798 -0.07005683 0.34197566 0.22227812 -0.20145555 -0.098849475 0.025798615

linear3.bias f4 [16]
00000000: e756 cc3d 0cb9 7cbd 004e 5c3e 9210 07bd
00000010: 04a0 063d fa09 7e3e 000d df3d 34be 73bd
00000020: a4a6 ad3d fb05 d03d f821 55be af38 bcbd
00000030: 1355 553d 6e21 48bc 8d72 bdbd 958c 8f3c
0.09977513 -0.061699912 0.2151413 -0.032974787 0.032867447 0.24808493 0.108911514 -0.059507564
0.0847905 0.10157391 -0.2081374 -0.09190499 0.052083086 -0.0122150015 -0.092503645 0.01752309

linear4.weight f4 [1, 16]
00000000: 9390 943e d2ba c2be b275 cc3e 7849 5d3e
00000010: fd1a 093e a9bf 913e 8816 1c3e 4888 9dbe
00000020: 4f71 743e 6d02 953e b048 67be ccca bfbe
00000030: 61db 7c3e e88a 14be 2322 c1be 950a 753e
0.2901655 -0.38033158 0.39933544 0.21610057 0.13389201 0.28466538 0.1524297 -0.30768037
0.23871349 0.29103413 -0.22586322 -0.3745941 0.24693061 -0.14506114 -0.37721357 0.23929818
